{"backend": "tensorflow", "config": {"name": "model_1", "input_layers": [["input_1", 0, 0]], "layers": [{"config": {"batch_input_shape": [null, 256, 256, 3], "sparse": false, "dtype": "float32", "name": "input_1"}, "inbound_nodes": [], "class_name": "InputLayer", "name": "input_1"}, {"config": {"strides": [2, 2], "bias_initializer": {"config": {}, "class_name": "Zeros"}, "data_format": "channels_last", "kernel_constraint": null, "use_bias": true, "filters": 64, "activity_regularizer": null, "kernel_regularizer": null, "activation": "linear", "trainable": true, "bias_regularizer": null, "padding": "same", "dilation_rate": [1, 1], "name": "conv1", "bias_constraint": null, "kernel_size": [7, 7], "kernel_initializer": {"config": {"seed": null, "scale": 1.0, "mode": "fan_avg", "distribution": "uniform"}, "class_name": "VarianceScaling"}}, "inbound_nodes": [[["input_1", 0, 0, {}]]], "class_name": "Conv2D", "name": "conv1"}, {"config": {"moving_mean_initializer": {"config": {}, "class_name": "Zeros"}, "momentum": 0.99, "scale": true, "epsilon": 0.001, "gamma_initializer": {"config": {}, "class_name": "Ones"}, "beta_initializer": {"config": {}, "class_name": "Zeros"}, "beta_constraint": null, "trainable": true, "axis": 3, "gamma_regularizer": null, "gamma_constraint": null, "name": "bn_conv1", "center": true, "beta_regularizer": null, "moving_variance_initializer": {"config": {}, "class_name": "Ones"}}, "inbound_nodes": [[["conv1", 0, 0, {}]]], "class_name": "BatchNormalization", "name": "bn_conv1"}, {"config": {"trainable": true, "activation": "relu", "name": "activation_1"}, "inbound_nodes": [[["bn_conv1", 0, 0, {}]]], "class_name": "Activation", "name": "activation_1"}, {"config": {"trainable": true, "strides": [2, 2], "padding": "valid", "name": "max_pooling2d_1", "pool_size": [3, 3], "data_format": "channels_last"}, "inbound_nodes": [[["activation_1", 0, 0, {}]]], "class_name": "MaxPooling2D", "name": "max_pooling2d_1"}, {"config": {"strides": [1, 1], "bias_initializer": {"config": {}, "class_name": "Zeros"}, "data_format": "channels_last", "kernel_constraint": null, "use_bias": true, "filters": 64, "activity_regularizer": null, "kernel_regularizer": null, "activation": "linear", "trainable": true, "bias_regularizer": null, "padding": "valid", "dilation_rate": [1, 1], "name": "res2a_branch2a", "bias_constraint": null, "kernel_size": [1, 1], "kernel_initializer": {"config": {"seed": null, "scale": 1.0, "mode": "fan_avg", "distribution": "uniform"}, "class_name": "VarianceScaling"}}, "inbound_nodes": [[["max_pooling2d_1", 0, 0, {}]]], "class_name": "Conv2D", "name": "res2a_branch2a"}, {"config": {"moving_mean_initializer": {"config": {}, "class_name": "Zeros"}, "momentum": 0.99, "scale": true, "epsilon": 0.001, "gamma_initializer": {"config": {}, "class_name": "Ones"}, "beta_initializer": {"config": {}, "class_name": "Zeros"}, "beta_constraint": null, "trainable": true, "axis": 3, "gamma_regularizer": null, "gamma_constraint": null, "name": "bn2a_branch2a", "center": true, "beta_regularizer": null, "moving_variance_initializer": {"config": {}, "class_name": "Ones"}}, "inbound_nodes": [[["res2a_branch2a", 0, 0, {}]]], "class_name": "BatchNormalization", "name": "bn2a_branch2a"}, {"config": {"trainable": true, "activation": "relu", "name": "activation_2"}, "inbound_nodes": [[["bn2a_branch2a", 0, 0, {}]]], "class_name": "Activation", "name": "activation_2"}, {"config": {"strides": [1, 1], "bias_initializer": {"config": {}, "class_name": "Zeros"}, "data_format": "channels_last", "kernel_constraint": null, "use_bias": true, "filters": 64, "activity_regularizer": null, "kernel_regularizer": null, "activation": "linear", "trainable": true, "bias_regularizer": null, "padding": "same", "dilation_rate": [1, 1], "name": "res2a_branch2b", "bias_constraint": null, "kernel_size": [3, 3], "kernel_initializer": {"config": {"seed": null, "scale": 1.0, "mode": "fan_avg", "distribution": "uniform"}, "class_name": "VarianceScaling"}}, "inbound_nodes": [[["activation_2", 0, 0, {}]]], "class_name": "Conv2D", "name": "res2a_branch2b"}, {"config": {"moving_mean_initializer": {"config": {}, "class_name": "Zeros"}, "momentum": 0.99, "scale": true, "epsilon": 0.001, "gamma_initializer": {"config": {}, "class_name": "Ones"}, "beta_initializer": {"config": {}, "class_name": "Zeros"}, "beta_constraint": null, "trainable": true, "axis": 3, "gamma_regularizer": null, "gamma_constraint": null, "name": "bn2a_branch2b", "center": true, "beta_regularizer": null, "moving_variance_initializer": {"config": {}, "class_name": "Ones"}}, "inbound_nodes": [[["res2a_branch2b", 0, 0, {}]]], "class_name": "BatchNormalization", "name": "bn2a_branch2b"}, {"config": {"trainable": true, "activation": "relu", "name": "activation_3"}, "inbound_nodes": [[["bn2a_branch2b", 0, 0, {}]]], "class_name": "Activation", "name": "activation_3"}, {"config": {"strides": [1, 1], "bias_initializer": {"config": {}, "class_name": "Zeros"}, "data_format": "channels_last", "kernel_constraint": null, "use_bias": true, "filters": 256, "activity_regularizer": null, "kernel_regularizer": null, "activation": "linear", "trainable": true, "bias_regularizer": null, "padding": "valid", "dilation_rate": [1, 1], "name": "res2a_branch2c", "bias_constraint": null, "kernel_size": [1, 1], "kernel_initializer": {"config": {"seed": null, "scale": 1.0, "mode": "fan_avg", "distribution": "uniform"}, "class_name": "VarianceScaling"}}, "inbound_nodes": [[["activation_3", 0, 0, {}]]], "class_name": "Conv2D", "name": "res2a_branch2c"}, {"config": {"strides": [1, 1], "bias_initializer": {"config": {}, "class_name": "Zeros"}, "data_format": "channels_last", "kernel_constraint": null, "use_bias": true, "filters": 256, "activity_regularizer": null, "kernel_regularizer": null, "activation": "linear", "trainable": true, "bias_regularizer": null, "padding": "valid", "dilation_rate": [1, 1], "name": "res2a_branch1", "bias_constraint": null, "kernel_size": [1, 1], "kernel_initializer": {"config": {"seed": null, "scale": 1.0, "mode": "fan_avg", "distribution": "uniform"}, "class_name": "VarianceScaling"}}, "inbound_nodes": [[["max_pooling2d_1", 0, 0, {}]]], "class_name": "Conv2D", "name": "res2a_branch1"}, {"config": {"moving_mean_initializer": {"config": {}, "class_name": "Zeros"}, "momentum": 0.99, "scale": true, "epsilon": 0.001, "gamma_initializer": {"config": {}, "class_name": "Ones"}, "beta_initializer": {"config": {}, "class_name": "Zeros"}, "beta_constraint": null, "trainable": true, "axis": 3, "gamma_regularizer": null, "gamma_constraint": null, "name": "bn2a_branch2c", "center": true, "beta_regularizer": null, "moving_variance_initializer": {"config": {}, "class_name": "Ones"}}, "inbound_nodes": [[["res2a_branch2c", 0, 0, {}]]], "class_name": "BatchNormalization", "name": "bn2a_branch2c"}, {"config": {"moving_mean_initializer": {"config": {}, "class_name": "Zeros"}, "momentum": 0.99, "scale": true, "epsilon": 0.001, "gamma_initializer": {"config": {}, "class_name": "Ones"}, "beta_initializer": {"config": {}, "class_name": "Zeros"}, "beta_constraint": null, "trainable": true, "axis": 3, "gamma_regularizer": null, "gamma_constraint": null, "name": "bn2a_branch1", "center": true, "beta_regularizer": null, "moving_variance_initializer": {"config": {}, "class_name": "Ones"}}, "inbound_nodes": [[["res2a_branch1", 0, 0, {}]]], "class_name": "BatchNormalization", "name": "bn2a_branch1"}, {"config": {"trainable": true, "name": "add_1"}, "inbound_nodes": [[["bn2a_branch2c", 0, 0, {}], ["bn2a_branch1", 0, 0, {}]]], "class_name": "Add", "name": "add_1"}, {"config": {"trainable": true, "activation": "relu", "name": "activation_4"}, "inbound_nodes": [[["add_1", 0, 0, {}]]], "class_name": "Activation", "name": "activation_4"}, {"config": {"strides": [1, 1], "bias_initializer": {"config": {}, "class_name": "Zeros"}, "data_format": "channels_last", "kernel_constraint": null, "use_bias": true, "filters": 64, "activity_regularizer": null, "kernel_regularizer": null, "activation": "linear", "trainable": true, "bias_regularizer": null, "padding": "valid", "dilation_rate": [1, 1], "name": "res2b_branch2a", "bias_constraint": null, "kernel_size": [1, 1], "kernel_initializer": {"config": {"seed": null, "scale": 1.0, "mode": "fan_avg", "distribution": "uniform"}, "class_name": "VarianceScaling"}}, "inbound_nodes": [[["activation_4", 0, 0, {}]]], "class_name": "Conv2D", "name": "res2b_branch2a"}, {"config": {"moving_mean_initializer": {"config": {}, "class_name": "Zeros"}, "momentum": 0.99, "scale": true, "epsilon": 0.001, "gamma_initializer": {"config": {}, "class_name": "Ones"}, "beta_initializer": {"config": {}, "class_name": "Zeros"}, "beta_constraint": null, "trainable": true, "axis": 3, "gamma_regularizer": null, "gamma_constraint": null, "name": "bn2b_branch2a", "center": true, "beta_regularizer": null, "moving_variance_initializer": {"config": {}, "class_name": "Ones"}}, "inbound_nodes": [[["res2b_branch2a", 0, 0, {}]]], "class_name": "BatchNormalization", "name": "bn2b_branch2a"}, {"config": {"trainable": true, "activation": "relu", "name": "activation_5"}, "inbound_nodes": [[["bn2b_branch2a", 0, 0, {}]]], "class_name": "Activation", "name": "activation_5"}, {"config": {"strides": [1, 1], "bias_initializer": {"config": {}, "class_name": "Zeros"}, "data_format": "channels_last", "kernel_constraint": null, "use_bias": true, "filters": 64, "activity_regularizer": null, "kernel_regularizer": null, "activation": "linear", "trainable": true, "bias_regularizer": null, "padding": "same", "dilation_rate": [1, 1], "name": "res2b_branch2b", "bias_constraint": null, "kernel_size": [3, 3], "kernel_initializer": {"config": {"seed": null, "scale": 1.0, "mode": "fan_avg", "distribution": "uniform"}, "class_name": "VarianceScaling"}}, "inbound_nodes": [[["activation_5", 0, 0, {}]]], "class_name": "Conv2D", "name": "res2b_branch2b"}, {"config": {"moving_mean_initializer": {"config": {}, "class_name": "Zeros"}, "momentum": 0.99, "scale": true, "epsilon": 0.001, "gamma_initializer": {"config": {}, "class_name": "Ones"}, "beta_initializer": {"config": {}, "class_name": "Zeros"}, "beta_constraint": null, "trainable": true, "axis": 3, "gamma_regularizer": null, "gamma_constraint": null, "name": "bn2b_branch2b", "center": true, "beta_regularizer": null, "moving_variance_initializer": {"config": {}, "class_name": "Ones"}}, "inbound_nodes": [[["res2b_branch2b", 0, 0, {}]]], "class_name": "BatchNormalization", "name": "bn2b_branch2b"}, {"config": {"trainable": true, "activation": "relu", "name": "activation_6"}, "inbound_nodes": [[["bn2b_branch2b", 0, 0, {}]]], "class_name": "Activation", "name": "activation_6"}, {"config": {"strides": [1, 1], "bias_initializer": {"config": {}, "class_name": "Zeros"}, "data_format": "channels_last", "kernel_constraint": null, "use_bias": true, "filters": 256, "activity_regularizer": null, "kernel_regularizer": null, "activation": "linear", "trainable": true, "bias_regularizer": null, "padding": "valid", "dilation_rate": [1, 1], "name": "res2b_branch2c", "bias_constraint": null, "kernel_size": [1, 1], "kernel_initializer": {"config": {"seed": null, "scale": 1.0, "mode": "fan_avg", "distribution": "uniform"}, "class_name": "VarianceScaling"}}, "inbound_nodes": [[["activation_6", 0, 0, {}]]], "class_name": "Conv2D", "name": "res2b_branch2c"}, {"config": {"moving_mean_initializer": {"config": {}, "class_name": "Zeros"}, "momentum": 0.99, "scale": true, "epsilon": 0.001, "gamma_initializer": {"config": {}, "class_name": "Ones"}, "beta_initializer": {"config": {}, "class_name": "Zeros"}, "beta_constraint": null, "trainable": true, "axis": 3, "gamma_regularizer": null, "gamma_constraint": null, "name": "bn2b_branch2c", "center": true, "beta_regularizer": null, "moving_variance_initializer": {"config": {}, "class_name": "Ones"}}, "inbound_nodes": [[["res2b_branch2c", 0, 0, {}]]], "class_name": "BatchNormalization", "name": "bn2b_branch2c"}, {"config": {"trainable": true, "name": "add_2"}, "inbound_nodes": [[["bn2b_branch2c", 0, 0, {}], ["activation_4", 0, 0, {}]]], "class_name": "Add", "name": "add_2"}, {"config": {"trainable": true, "activation": "relu", "name": "activation_7"}, "inbound_nodes": [[["add_2", 0, 0, {}]]], "class_name": "Activation", "name": "activation_7"}, {"config": {"strides": [1, 1], "bias_initializer": {"config": {}, "class_name": "Zeros"}, "data_format": "channels_last", "kernel_constraint": null, "use_bias": true, "filters": 64, "activity_regularizer": null, "kernel_regularizer": null, "activation": "linear", "trainable": true, "bias_regularizer": null, "padding": "valid", "dilation_rate": [1, 1], "name": "res2c_branch2a", "bias_constraint": null, "kernel_size": [1, 1], "kernel_initializer": {"config": {"seed": null, "scale": 1.0, "mode": "fan_avg", "distribution": "uniform"}, "class_name": "VarianceScaling"}}, "inbound_nodes": [[["activation_7", 0, 0, {}]]], "class_name": "Conv2D", "name": "res2c_branch2a"}, {"config": {"moving_mean_initializer": {"config": {}, "class_name": "Zeros"}, "momentum": 0.99, "scale": true, "epsilon": 0.001, "gamma_initializer": {"config": {}, "class_name": "Ones"}, "beta_initializer": {"config": {}, "class_name": "Zeros"}, "beta_constraint": null, "trainable": true, "axis": 3, "gamma_regularizer": null, "gamma_constraint": null, "name": "bn2c_branch2a", "center": true, "beta_regularizer": null, "moving_variance_initializer": {"config": {}, "class_name": "Ones"}}, "inbound_nodes": [[["res2c_branch2a", 0, 0, {}]]], "class_name": "BatchNormalization", "name": "bn2c_branch2a"}, {"config": {"trainable": true, "activation": "relu", "name": "activation_8"}, "inbound_nodes": [[["bn2c_branch2a", 0, 0, {}]]], "class_name": "Activation", "name": "activation_8"}, {"config": {"strides": [1, 1], "bias_initializer": {"config": {}, "class_name": "Zeros"}, "data_format": "channels_last", "kernel_constraint": null, "use_bias": true, "filters": 64, "activity_regularizer": null, "kernel_regularizer": null, "activation": "linear", "trainable": true, "bias_regularizer": null, "padding": "same", "dilation_rate": [1, 1], "name": "res2c_branch2b", "bias_constraint": null, "kernel_size": [3, 3], "kernel_initializer": {"config": {"seed": null, "scale": 1.0, "mode": "fan_avg", "distribution": "uniform"}, "class_name": "VarianceScaling"}}, "inbound_nodes": [[["activation_8", 0, 0, {}]]], "class_name": "Conv2D", "name": "res2c_branch2b"}, {"config": {"moving_mean_initializer": {"config": {}, "class_name": "Zeros"}, "momentum": 0.99, "scale": true, "epsilon": 0.001, "gamma_initializer": {"config": {}, "class_name": "Ones"}, "beta_initializer": {"config": {}, "class_name": "Zeros"}, "beta_constraint": null, "trainable": true, "axis": 3, "gamma_regularizer": null, "gamma_constraint": null, "name": "bn2c_branch2b", "center": true, "beta_regularizer": null, "moving_variance_initializer": {"config": {}, "class_name": "Ones"}}, "inbound_nodes": [[["res2c_branch2b", 0, 0, {}]]], "class_name": "BatchNormalization", "name": "bn2c_branch2b"}, {"config": {"trainable": true, "activation": "relu", "name": "activation_9"}, "inbound_nodes": [[["bn2c_branch2b", 0, 0, {}]]], "class_name": "Activation", "name": "activation_9"}, {"config": {"strides": [1, 1], "bias_initializer": {"config": {}, "class_name": "Zeros"}, "data_format": "channels_last", "kernel_constraint": null, "use_bias": true, "filters": 256, "activity_regularizer": null, "kernel_regularizer": null, "activation": "linear", "trainable": true, "bias_regularizer": null, "padding": "valid", "dilation_rate": [1, 1], "name": "res2c_branch2c", "bias_constraint": null, "kernel_size": [1, 1], "kernel_initializer": {"config": {"seed": null, "scale": 1.0, "mode": "fan_avg", "distribution": "uniform"}, "class_name": "VarianceScaling"}}, "inbound_nodes": [[["activation_9", 0, 0, {}]]], "class_name": "Conv2D", "name": "res2c_branch2c"}, {"config": {"moving_mean_initializer": {"config": {}, "class_name": "Zeros"}, "momentum": 0.99, "scale": true, "epsilon": 0.001, "gamma_initializer": {"config": {}, "class_name": "Ones"}, "beta_initializer": {"config": {}, "class_name": "Zeros"}, "beta_constraint": null, "trainable": true, "axis": 3, "gamma_regularizer": null, "gamma_constraint": null, "name": "bn2c_branch2c", "center": true, "beta_regularizer": null, "moving_variance_initializer": {"config": {}, "class_name": "Ones"}}, "inbound_nodes": [[["res2c_branch2c", 0, 0, {}]]], "class_name": "BatchNormalization", "name": "bn2c_branch2c"}, {"config": {"trainable": true, "name": "add_3"}, "inbound_nodes": [[["bn2c_branch2c", 0, 0, {}], ["activation_7", 0, 0, {}]]], "class_name": "Add", "name": "add_3"}, {"config": {"trainable": true, "activation": "relu", "name": "activation_10"}, "inbound_nodes": [[["add_3", 0, 0, {}]]], "class_name": "Activation", "name": "activation_10"}, {"config": {"strides": [2, 2], "bias_initializer": {"config": {}, "class_name": "Zeros"}, "data_format": "channels_last", "kernel_constraint": null, "use_bias": true, "filters": 128, "activity_regularizer": null, "kernel_regularizer": null, "activation": "linear", "trainable": true, "bias_regularizer": null, "padding": "valid", "dilation_rate": [1, 1], "name": "res3a_branch2a", "bias_constraint": null, "kernel_size": [1, 1], "kernel_initializer": {"config": {"seed": null, "scale": 1.0, "mode": "fan_avg", "distribution": "uniform"}, "class_name": "VarianceScaling"}}, "inbound_nodes": [[["activation_10", 0, 0, {}]]], "class_name": "Conv2D", "name": "res3a_branch2a"}, {"config": {"moving_mean_initializer": {"config": {}, "class_name": "Zeros"}, "momentum": 0.99, "scale": true, "epsilon": 0.001, "gamma_initializer": {"config": {}, "class_name": "Ones"}, "beta_initializer": {"config": {}, "class_name": "Zeros"}, "beta_constraint": null, "trainable": true, "axis": 3, "gamma_regularizer": null, "gamma_constraint": null, "name": "bn3a_branch2a", "center": true, "beta_regularizer": null, "moving_variance_initializer": {"config": {}, "class_name": "Ones"}}, "inbound_nodes": [[["res3a_branch2a", 0, 0, {}]]], "class_name": "BatchNormalization", "name": "bn3a_branch2a"}, {"config": {"trainable": true, "activation": "relu", "name": "activation_11"}, "inbound_nodes": [[["bn3a_branch2a", 0, 0, {}]]], "class_name": "Activation", "name": "activation_11"}, {"config": {"strides": [1, 1], "bias_initializer": {"config": {}, "class_name": "Zeros"}, "data_format": "channels_last", "kernel_constraint": null, "use_bias": true, "filters": 128, "activity_regularizer": null, "kernel_regularizer": null, "activation": "linear", "trainable": true, "bias_regularizer": null, "padding": "same", "dilation_rate": [1, 1], "name": "res3a_branch2b", "bias_constraint": null, "kernel_size": [3, 3], "kernel_initializer": {"config": {"seed": null, "scale": 1.0, "mode": "fan_avg", "distribution": "uniform"}, "class_name": "VarianceScaling"}}, "inbound_nodes": [[["activation_11", 0, 0, {}]]], "class_name": "Conv2D", "name": "res3a_branch2b"}, {"config": {"moving_mean_initializer": {"config": {}, "class_name": "Zeros"}, "momentum": 0.99, "scale": true, "epsilon": 0.001, "gamma_initializer": {"config": {}, "class_name": "Ones"}, "beta_initializer": {"config": {}, "class_name": "Zeros"}, "beta_constraint": null, "trainable": true, "axis": 3, "gamma_regularizer": null, "gamma_constraint": null, "name": "bn3a_branch2b", "center": true, "beta_regularizer": null, "moving_variance_initializer": {"config": {}, "class_name": "Ones"}}, "inbound_nodes": [[["res3a_branch2b", 0, 0, {}]]], "class_name": "BatchNormalization", "name": "bn3a_branch2b"}, {"config": {"trainable": true, "activation": "relu", "name": "activation_12"}, "inbound_nodes": [[["bn3a_branch2b", 0, 0, {}]]], "class_name": "Activation", "name": "activation_12"}, {"config": {"strides": [1, 1], "bias_initializer": {"config": {}, "class_name": "Zeros"}, "data_format": "channels_last", "kernel_constraint": null, "use_bias": true, "filters": 512, "activity_regularizer": null, "kernel_regularizer": null, "activation": "linear", "trainable": true, "bias_regularizer": null, "padding": "valid", "dilation_rate": [1, 1], "name": "res3a_branch2c", "bias_constraint": null, "kernel_size": [1, 1], "kernel_initializer": {"config": {"seed": null, "scale": 1.0, "mode": "fan_avg", "distribution": "uniform"}, "class_name": "VarianceScaling"}}, "inbound_nodes": [[["activation_12", 0, 0, {}]]], "class_name": "Conv2D", "name": "res3a_branch2c"}, {"config": {"strides": [2, 2], "bias_initializer": {"config": {}, "class_name": "Zeros"}, "data_format": "channels_last", "kernel_constraint": null, "use_bias": true, "filters": 512, "activity_regularizer": null, "kernel_regularizer": null, "activation": "linear", "trainable": true, "bias_regularizer": null, "padding": "valid", "dilation_rate": [1, 1], "name": "res3a_branch1", "bias_constraint": null, "kernel_size": [1, 1], "kernel_initializer": {"config": {"seed": null, "scale": 1.0, "mode": "fan_avg", "distribution": "uniform"}, "class_name": "VarianceScaling"}}, "inbound_nodes": [[["activation_10", 0, 0, {}]]], "class_name": "Conv2D", "name": "res3a_branch1"}, {"config": {"moving_mean_initializer": {"config": {}, "class_name": "Zeros"}, "momentum": 0.99, "scale": true, "epsilon": 0.001, "gamma_initializer": {"config": {}, "class_name": "Ones"}, "beta_initializer": {"config": {}, "class_name": "Zeros"}, "beta_constraint": null, "trainable": true, "axis": 3, "gamma_regularizer": null, "gamma_constraint": null, "name": "bn3a_branch2c", "center": true, "beta_regularizer": null, "moving_variance_initializer": {"config": {}, "class_name": "Ones"}}, "inbound_nodes": [[["res3a_branch2c", 0, 0, {}]]], "class_name": "BatchNormalization", "name": "bn3a_branch2c"}, {"config": {"moving_mean_initializer": {"config": {}, "class_name": "Zeros"}, "momentum": 0.99, "scale": true, "epsilon": 0.001, "gamma_initializer": {"config": {}, "class_name": "Ones"}, "beta_initializer": {"config": {}, "class_name": "Zeros"}, "beta_constraint": null, "trainable": true, "axis": 3, "gamma_regularizer": null, "gamma_constraint": null, "name": "bn3a_branch1", "center": true, "beta_regularizer": null, "moving_variance_initializer": {"config": {}, "class_name": "Ones"}}, "inbound_nodes": [[["res3a_branch1", 0, 0, {}]]], "class_name": "BatchNormalization", "name": "bn3a_branch1"}, {"config": {"trainable": true, "name": "add_4"}, "inbound_nodes": [[["bn3a_branch2c", 0, 0, {}], ["bn3a_branch1", 0, 0, {}]]], "class_name": "Add", "name": "add_4"}, {"config": {"trainable": true, "activation": "relu", "name": "activation_13"}, "inbound_nodes": [[["add_4", 0, 0, {}]]], "class_name": "Activation", "name": "activation_13"}, {"config": {"strides": [1, 1], "bias_initializer": {"config": {}, "class_name": "Zeros"}, "data_format": "channels_last", "kernel_constraint": null, "use_bias": true, "filters": 128, "activity_regularizer": null, "kernel_regularizer": null, "activation": "linear", "trainable": true, "bias_regularizer": null, "padding": "valid", "dilation_rate": [1, 1], "name": "res3b_branch2a", "bias_constraint": null, "kernel_size": [1, 1], "kernel_initializer": {"config": {"seed": null, "scale": 1.0, "mode": "fan_avg", "distribution": "uniform"}, "class_name": "VarianceScaling"}}, "inbound_nodes": [[["activation_13", 0, 0, {}]]], "class_name": "Conv2D", "name": "res3b_branch2a"}, {"config": {"moving_mean_initializer": {"config": {}, "class_name": "Zeros"}, "momentum": 0.99, "scale": true, "epsilon": 0.001, "gamma_initializer": {"config": {}, "class_name": "Ones"}, "beta_initializer": {"config": {}, "class_name": "Zeros"}, "beta_constraint": null, "trainable": true, "axis": 3, "gamma_regularizer": null, "gamma_constraint": null, "name": "bn3b_branch2a", "center": true, "beta_regularizer": null, "moving_variance_initializer": {"config": {}, "class_name": "Ones"}}, "inbound_nodes": [[["res3b_branch2a", 0, 0, {}]]], "class_name": "BatchNormalization", "name": "bn3b_branch2a"}, {"config": {"trainable": true, "activation": "relu", "name": "activation_14"}, "inbound_nodes": [[["bn3b_branch2a", 0, 0, {}]]], "class_name": "Activation", "name": "activation_14"}, {"config": {"strides": [1, 1], "bias_initializer": {"config": {}, "class_name": "Zeros"}, "data_format": "channels_last", "kernel_constraint": null, "use_bias": true, "filters": 128, "activity_regularizer": null, "kernel_regularizer": null, "activation": "linear", "trainable": true, "bias_regularizer": null, "padding": "same", "dilation_rate": [1, 1], "name": "res3b_branch2b", "bias_constraint": null, "kernel_size": [3, 3], "kernel_initializer": {"config": {"seed": null, "scale": 1.0, "mode": "fan_avg", "distribution": "uniform"}, "class_name": "VarianceScaling"}}, "inbound_nodes": [[["activation_14", 0, 0, {}]]], "class_name": "Conv2D", "name": "res3b_branch2b"}, {"config": {"moving_mean_initializer": {"config": {}, "class_name": "Zeros"}, "momentum": 0.99, "scale": true, "epsilon": 0.001, "gamma_initializer": {"config": {}, "class_name": "Ones"}, "beta_initializer": {"config": {}, "class_name": "Zeros"}, "beta_constraint": null, "trainable": true, "axis": 3, "gamma_regularizer": null, "gamma_constraint": null, "name": "bn3b_branch2b", "center": true, "beta_regularizer": null, "moving_variance_initializer": {"config": {}, "class_name": "Ones"}}, "inbound_nodes": [[["res3b_branch2b", 0, 0, {}]]], "class_name": "BatchNormalization", "name": "bn3b_branch2b"}, {"config": {"trainable": true, "activation": "relu", "name": "activation_15"}, "inbound_nodes": [[["bn3b_branch2b", 0, 0, {}]]], "class_name": "Activation", "name": "activation_15"}, {"config": {"strides": [1, 1], "bias_initializer": {"config": {}, "class_name": "Zeros"}, "data_format": "channels_last", "kernel_constraint": null, "use_bias": true, "filters": 512, "activity_regularizer": null, "kernel_regularizer": null, "activation": "linear", "trainable": true, "bias_regularizer": null, "padding": "valid", "dilation_rate": [1, 1], "name": "res3b_branch2c", "bias_constraint": null, "kernel_size": [1, 1], "kernel_initializer": {"config": {"seed": null, "scale": 1.0, "mode": "fan_avg", "distribution": "uniform"}, "class_name": "VarianceScaling"}}, "inbound_nodes": [[["activation_15", 0, 0, {}]]], "class_name": "Conv2D", "name": "res3b_branch2c"}, {"config": {"moving_mean_initializer": {"config": {}, "class_name": "Zeros"}, "momentum": 0.99, "scale": true, "epsilon": 0.001, "gamma_initializer": {"config": {}, "class_name": "Ones"}, "beta_initializer": {"config": {}, "class_name": "Zeros"}, "beta_constraint": null, "trainable": true, "axis": 3, "gamma_regularizer": null, "gamma_constraint": null, "name": "bn3b_branch2c", "center": true, "beta_regularizer": null, "moving_variance_initializer": {"config": {}, "class_name": "Ones"}}, "inbound_nodes": [[["res3b_branch2c", 0, 0, {}]]], "class_name": "BatchNormalization", "name": "bn3b_branch2c"}, {"config": {"trainable": true, "name": "add_5"}, "inbound_nodes": [[["bn3b_branch2c", 0, 0, {}], ["activation_13", 0, 0, {}]]], "class_name": "Add", "name": "add_5"}, {"config": {"trainable": true, "activation": "relu", "name": "activation_16"}, "inbound_nodes": [[["add_5", 0, 0, {}]]], "class_name": "Activation", "name": "activation_16"}, {"config": {"strides": [1, 1], "bias_initializer": {"config": {}, "class_name": "Zeros"}, "data_format": "channels_last", "kernel_constraint": null, "use_bias": true, "filters": 128, "activity_regularizer": null, "kernel_regularizer": null, "activation": "linear", "trainable": true, "bias_regularizer": null, "padding": "valid", "dilation_rate": [1, 1], "name": "res3c_branch2a", "bias_constraint": null, "kernel_size": [1, 1], "kernel_initializer": {"config": {"seed": null, "scale": 1.0, "mode": "fan_avg", "distribution": "uniform"}, "class_name": "VarianceScaling"}}, "inbound_nodes": [[["activation_16", 0, 0, {}]]], "class_name": "Conv2D", "name": "res3c_branch2a"}, {"config": {"moving_mean_initializer": {"config": {}, "class_name": "Zeros"}, "momentum": 0.99, "scale": true, "epsilon": 0.001, "gamma_initializer": {"config": {}, "class_name": "Ones"}, "beta_initializer": {"config": {}, "class_name": "Zeros"}, "beta_constraint": null, "trainable": true, "axis": 3, "gamma_regularizer": null, "gamma_constraint": null, "name": "bn3c_branch2a", "center": true, "beta_regularizer": null, "moving_variance_initializer": {"config": {}, "class_name": "Ones"}}, "inbound_nodes": [[["res3c_branch2a", 0, 0, {}]]], "class_name": "BatchNormalization", "name": "bn3c_branch2a"}, {"config": {"trainable": true, "activation": "relu", "name": "activation_17"}, "inbound_nodes": [[["bn3c_branch2a", 0, 0, {}]]], "class_name": "Activation", "name": "activation_17"}, {"config": {"strides": [1, 1], "bias_initializer": {"config": {}, "class_name": "Zeros"}, "data_format": "channels_last", "kernel_constraint": null, "use_bias": true, "filters": 128, "activity_regularizer": null, "kernel_regularizer": null, "activation": "linear", "trainable": true, "bias_regularizer": null, "padding": "same", "dilation_rate": [1, 1], "name": "res3c_branch2b", "bias_constraint": null, "kernel_size": [3, 3], "kernel_initializer": {"config": {"seed": null, "scale": 1.0, "mode": "fan_avg", "distribution": "uniform"}, "class_name": "VarianceScaling"}}, "inbound_nodes": [[["activation_17", 0, 0, {}]]], "class_name": "Conv2D", "name": "res3c_branch2b"}, {"config": {"moving_mean_initializer": {"config": {}, "class_name": "Zeros"}, "momentum": 0.99, "scale": true, "epsilon": 0.001, "gamma_initializer": {"config": {}, "class_name": "Ones"}, "beta_initializer": {"config": {}, "class_name": "Zeros"}, "beta_constraint": null, "trainable": true, "axis": 3, "gamma_regularizer": null, "gamma_constraint": null, "name": "bn3c_branch2b", "center": true, "beta_regularizer": null, "moving_variance_initializer": {"config": {}, "class_name": "Ones"}}, "inbound_nodes": [[["res3c_branch2b", 0, 0, {}]]], "class_name": "BatchNormalization", "name": "bn3c_branch2b"}, {"config": {"trainable": true, "activation": "relu", "name": "activation_18"}, "inbound_nodes": [[["bn3c_branch2b", 0, 0, {}]]], "class_name": "Activation", "name": "activation_18"}, {"config": {"strides": [1, 1], "bias_initializer": {"config": {}, "class_name": "Zeros"}, "data_format": "channels_last", "kernel_constraint": null, "use_bias": true, "filters": 512, "activity_regularizer": null, "kernel_regularizer": null, "activation": "linear", "trainable": true, "bias_regularizer": null, "padding": "valid", "dilation_rate": [1, 1], "name": "res3c_branch2c", "bias_constraint": null, "kernel_size": [1, 1], "kernel_initializer": {"config": {"seed": null, "scale": 1.0, "mode": "fan_avg", "distribution": "uniform"}, "class_name": "VarianceScaling"}}, "inbound_nodes": [[["activation_18", 0, 0, {}]]], "class_name": "Conv2D", "name": "res3c_branch2c"}, {"config": {"moving_mean_initializer": {"config": {}, "class_name": "Zeros"}, "momentum": 0.99, "scale": true, "epsilon": 0.001, "gamma_initializer": {"config": {}, "class_name": "Ones"}, "beta_initializer": {"config": {}, "class_name": "Zeros"}, "beta_constraint": null, "trainable": true, "axis": 3, "gamma_regularizer": null, "gamma_constraint": null, "name": "bn3c_branch2c", "center": true, "beta_regularizer": null, "moving_variance_initializer": {"config": {}, "class_name": "Ones"}}, "inbound_nodes": [[["res3c_branch2c", 0, 0, {}]]], "class_name": "BatchNormalization", "name": "bn3c_branch2c"}, {"config": {"trainable": true, "name": "add_6"}, "inbound_nodes": [[["bn3c_branch2c", 0, 0, {}], ["activation_16", 0, 0, {}]]], "class_name": "Add", "name": "add_6"}, {"config": {"trainable": true, "activation": "relu", "name": "activation_19"}, "inbound_nodes": [[["add_6", 0, 0, {}]]], "class_name": "Activation", "name": "activation_19"}, {"config": {"strides": [1, 1], "bias_initializer": {"config": {}, "class_name": "Zeros"}, "data_format": "channels_last", "kernel_constraint": null, "use_bias": true, "filters": 128, "activity_regularizer": null, "kernel_regularizer": null, "activation": "linear", "trainable": true, "bias_regularizer": null, "padding": "valid", "dilation_rate": [1, 1], "name": "res3d_branch2a", "bias_constraint": null, "kernel_size": [1, 1], "kernel_initializer": {"config": {"seed": null, "scale": 1.0, "mode": "fan_avg", "distribution": "uniform"}, "class_name": "VarianceScaling"}}, "inbound_nodes": [[["activation_19", 0, 0, {}]]], "class_name": "Conv2D", "name": "res3d_branch2a"}, {"config": {"moving_mean_initializer": {"config": {}, "class_name": "Zeros"}, "momentum": 0.99, "scale": true, "epsilon": 0.001, "gamma_initializer": {"config": {}, "class_name": "Ones"}, "beta_initializer": {"config": {}, "class_name": "Zeros"}, "beta_constraint": null, "trainable": true, "axis": 3, "gamma_regularizer": null, "gamma_constraint": null, "name": "bn3d_branch2a", "center": true, "beta_regularizer": null, "moving_variance_initializer": {"config": {}, "class_name": "Ones"}}, "inbound_nodes": [[["res3d_branch2a", 0, 0, {}]]], "class_name": "BatchNormalization", "name": "bn3d_branch2a"}, {"config": {"trainable": true, "activation": "relu", "name": "activation_20"}, "inbound_nodes": [[["bn3d_branch2a", 0, 0, {}]]], "class_name": "Activation", "name": "activation_20"}, {"config": {"strides": [1, 1], "bias_initializer": {"config": {}, "class_name": "Zeros"}, "data_format": "channels_last", "kernel_constraint": null, "use_bias": true, "filters": 128, "activity_regularizer": null, "kernel_regularizer": null, "activation": "linear", "trainable": true, "bias_regularizer": null, "padding": "same", "dilation_rate": [1, 1], "name": "res3d_branch2b", "bias_constraint": null, "kernel_size": [3, 3], "kernel_initializer": {"config": {"seed": null, "scale": 1.0, "mode": "fan_avg", "distribution": "uniform"}, "class_name": "VarianceScaling"}}, "inbound_nodes": [[["activation_20", 0, 0, {}]]], "class_name": "Conv2D", "name": "res3d_branch2b"}, {"config": {"moving_mean_initializer": {"config": {}, "class_name": "Zeros"}, "momentum": 0.99, "scale": true, "epsilon": 0.001, "gamma_initializer": {"config": {}, "class_name": "Ones"}, "beta_initializer": {"config": {}, "class_name": "Zeros"}, "beta_constraint": null, "trainable": true, "axis": 3, "gamma_regularizer": null, "gamma_constraint": null, "name": "bn3d_branch2b", "center": true, "beta_regularizer": null, "moving_variance_initializer": {"config": {}, "class_name": "Ones"}}, "inbound_nodes": [[["res3d_branch2b", 0, 0, {}]]], "class_name": "BatchNormalization", "name": "bn3d_branch2b"}, {"config": {"trainable": true, "activation": "relu", "name": "activation_21"}, "inbound_nodes": [[["bn3d_branch2b", 0, 0, {}]]], "class_name": "Activation", "name": "activation_21"}, {"config": {"strides": [1, 1], "bias_initializer": {"config": {}, "class_name": "Zeros"}, "data_format": "channels_last", "kernel_constraint": null, "use_bias": true, "filters": 512, "activity_regularizer": null, "kernel_regularizer": null, "activation": "linear", "trainable": true, "bias_regularizer": null, "padding": "valid", "dilation_rate": [1, 1], "name": "res3d_branch2c", "bias_constraint": null, "kernel_size": [1, 1], "kernel_initializer": {"config": {"seed": null, "scale": 1.0, "mode": "fan_avg", "distribution": "uniform"}, "class_name": "VarianceScaling"}}, "inbound_nodes": [[["activation_21", 0, 0, {}]]], "class_name": "Conv2D", "name": "res3d_branch2c"}, {"config": {"moving_mean_initializer": {"config": {}, "class_name": "Zeros"}, "momentum": 0.99, "scale": true, "epsilon": 0.001, "gamma_initializer": {"config": {}, "class_name": "Ones"}, "beta_initializer": {"config": {}, "class_name": "Zeros"}, "beta_constraint": null, "trainable": true, "axis": 3, "gamma_regularizer": null, "gamma_constraint": null, "name": "bn3d_branch2c", "center": true, "beta_regularizer": null, "moving_variance_initializer": {"config": {}, "class_name": "Ones"}}, "inbound_nodes": [[["res3d_branch2c", 0, 0, {}]]], "class_name": "BatchNormalization", "name": "bn3d_branch2c"}, {"config": {"trainable": true, "name": "add_7"}, "inbound_nodes": [[["bn3d_branch2c", 0, 0, {}], ["activation_19", 0, 0, {}]]], "class_name": "Add", "name": "add_7"}, {"config": {"trainable": true, "activation": "relu", "name": "activation_22"}, "inbound_nodes": [[["add_7", 0, 0, {}]]], "class_name": "Activation", "name": "activation_22"}, {"config": {"strides": [2, 2], "bias_initializer": {"config": {}, "class_name": "Zeros"}, "data_format": "channels_last", "kernel_constraint": null, "use_bias": true, "filters": 256, "activity_regularizer": null, "kernel_regularizer": null, "activation": "linear", "trainable": true, "bias_regularizer": null, "padding": "valid", "dilation_rate": [1, 1], "name": "res4a_branch2a", "bias_constraint": null, "kernel_size": [1, 1], "kernel_initializer": {"config": {"seed": null, "scale": 1.0, "mode": "fan_avg", "distribution": "uniform"}, "class_name": "VarianceScaling"}}, "inbound_nodes": [[["activation_22", 0, 0, {}]]], "class_name": "Conv2D", "name": "res4a_branch2a"}, {"config": {"moving_mean_initializer": {"config": {}, "class_name": "Zeros"}, "momentum": 0.99, "scale": true, "epsilon": 0.001, "gamma_initializer": {"config": {}, "class_name": "Ones"}, "beta_initializer": {"config": {}, "class_name": "Zeros"}, "beta_constraint": null, "trainable": true, "axis": 3, "gamma_regularizer": null, "gamma_constraint": null, "name": "bn4a_branch2a", "center": true, "beta_regularizer": null, "moving_variance_initializer": {"config": {}, "class_name": "Ones"}}, "inbound_nodes": [[["res4a_branch2a", 0, 0, {}]]], "class_name": "BatchNormalization", "name": "bn4a_branch2a"}, {"config": {"trainable": true, "activation": "relu", "name": "activation_23"}, "inbound_nodes": [[["bn4a_branch2a", 0, 0, {}]]], "class_name": "Activation", "name": "activation_23"}, {"config": {"strides": [1, 1], "bias_initializer": {"config": {}, "class_name": "Zeros"}, "data_format": "channels_last", "kernel_constraint": null, "use_bias": true, "filters": 256, "activity_regularizer": null, "kernel_regularizer": null, "activation": "linear", "trainable": true, "bias_regularizer": null, "padding": "same", "dilation_rate": [1, 1], "name": "res4a_branch2b", "bias_constraint": null, "kernel_size": [3, 3], "kernel_initializer": {"config": {"seed": null, "scale": 1.0, "mode": "fan_avg", "distribution": "uniform"}, "class_name": "VarianceScaling"}}, "inbound_nodes": [[["activation_23", 0, 0, {}]]], "class_name": "Conv2D", "name": "res4a_branch2b"}, {"config": {"moving_mean_initializer": {"config": {}, "class_name": "Zeros"}, "momentum": 0.99, "scale": true, "epsilon": 0.001, "gamma_initializer": {"config": {}, "class_name": "Ones"}, "beta_initializer": {"config": {}, "class_name": "Zeros"}, "beta_constraint": null, "trainable": true, "axis": 3, "gamma_regularizer": null, "gamma_constraint": null, "name": "bn4a_branch2b", "center": true, "beta_regularizer": null, "moving_variance_initializer": {"config": {}, "class_name": "Ones"}}, "inbound_nodes": [[["res4a_branch2b", 0, 0, {}]]], "class_name": "BatchNormalization", "name": "bn4a_branch2b"}, {"config": {"trainable": true, "activation": "relu", "name": "activation_24"}, "inbound_nodes": [[["bn4a_branch2b", 0, 0, {}]]], "class_name": "Activation", "name": "activation_24"}, {"config": {"strides": [1, 1], "bias_initializer": {"config": {}, "class_name": "Zeros"}, "data_format": "channels_last", "kernel_constraint": null, "use_bias": true, "filters": 1024, "activity_regularizer": null, "kernel_regularizer": null, "activation": "linear", "trainable": true, "bias_regularizer": null, "padding": "valid", "dilation_rate": [1, 1], "name": "res4a_branch2c", "bias_constraint": null, "kernel_size": [1, 1], "kernel_initializer": {"config": {"seed": null, "scale": 1.0, "mode": "fan_avg", "distribution": "uniform"}, "class_name": "VarianceScaling"}}, "inbound_nodes": [[["activation_24", 0, 0, {}]]], "class_name": "Conv2D", "name": "res4a_branch2c"}, {"config": {"strides": [2, 2], "bias_initializer": {"config": {}, "class_name": "Zeros"}, "data_format": "channels_last", "kernel_constraint": null, "use_bias": true, "filters": 1024, "activity_regularizer": null, "kernel_regularizer": null, "activation": "linear", "trainable": true, "bias_regularizer": null, "padding": "valid", "dilation_rate": [1, 1], "name": "res4a_branch1", "bias_constraint": null, "kernel_size": [1, 1], "kernel_initializer": {"config": {"seed": null, "scale": 1.0, "mode": "fan_avg", "distribution": "uniform"}, "class_name": "VarianceScaling"}}, "inbound_nodes": [[["activation_22", 0, 0, {}]]], "class_name": "Conv2D", "name": "res4a_branch1"}, {"config": {"moving_mean_initializer": {"config": {}, "class_name": "Zeros"}, "momentum": 0.99, "scale": true, "epsilon": 0.001, "gamma_initializer": {"config": {}, "class_name": "Ones"}, "beta_initializer": {"config": {}, "class_name": "Zeros"}, "beta_constraint": null, "trainable": true, "axis": 3, "gamma_regularizer": null, "gamma_constraint": null, "name": "bn4a_branch2c", "center": true, "beta_regularizer": null, "moving_variance_initializer": {"config": {}, "class_name": "Ones"}}, "inbound_nodes": [[["res4a_branch2c", 0, 0, {}]]], "class_name": "BatchNormalization", "name": "bn4a_branch2c"}, {"config": {"moving_mean_initializer": {"config": {}, "class_name": "Zeros"}, "momentum": 0.99, "scale": true, "epsilon": 0.001, "gamma_initializer": {"config": {}, "class_name": "Ones"}, "beta_initializer": {"config": {}, "class_name": "Zeros"}, "beta_constraint": null, "trainable": true, "axis": 3, "gamma_regularizer": null, "gamma_constraint": null, "name": "bn4a_branch1", "center": true, "beta_regularizer": null, "moving_variance_initializer": {"config": {}, "class_name": "Ones"}}, "inbound_nodes": [[["res4a_branch1", 0, 0, {}]]], "class_name": "BatchNormalization", "name": "bn4a_branch1"}, {"config": {"trainable": true, "name": "add_8"}, "inbound_nodes": [[["bn4a_branch2c", 0, 0, {}], ["bn4a_branch1", 0, 0, {}]]], "class_name": "Add", "name": "add_8"}, {"config": {"trainable": true, "activation": "relu", "name": "activation_25"}, "inbound_nodes": [[["add_8", 0, 0, {}]]], "class_name": "Activation", "name": "activation_25"}, {"config": {"strides": [1, 1], "bias_initializer": {"config": {}, "class_name": "Zeros"}, "data_format": "channels_last", "kernel_constraint": null, "use_bias": true, "filters": 256, "activity_regularizer": null, "kernel_regularizer": null, "activation": "linear", "trainable": true, "bias_regularizer": null, "padding": "valid", "dilation_rate": [1, 1], "name": "res4b_branch2a", "bias_constraint": null, "kernel_size": [1, 1], "kernel_initializer": {"config": {"seed": null, "scale": 1.0, "mode": "fan_avg", "distribution": "uniform"}, "class_name": "VarianceScaling"}}, "inbound_nodes": [[["activation_25", 0, 0, {}]]], "class_name": "Conv2D", "name": "res4b_branch2a"}, {"config": {"moving_mean_initializer": {"config": {}, "class_name": "Zeros"}, "momentum": 0.99, "scale": true, "epsilon": 0.001, "gamma_initializer": {"config": {}, "class_name": "Ones"}, "beta_initializer": {"config": {}, "class_name": "Zeros"}, "beta_constraint": null, "trainable": true, "axis": 3, "gamma_regularizer": null, "gamma_constraint": null, "name": "bn4b_branch2a", "center": true, "beta_regularizer": null, "moving_variance_initializer": {"config": {}, "class_name": "Ones"}}, "inbound_nodes": [[["res4b_branch2a", 0, 0, {}]]], "class_name": "BatchNormalization", "name": "bn4b_branch2a"}, {"config": {"trainable": true, "activation": "relu", "name": "activation_26"}, "inbound_nodes": [[["bn4b_branch2a", 0, 0, {}]]], "class_name": "Activation", "name": "activation_26"}, {"config": {"strides": [1, 1], "bias_initializer": {"config": {}, "class_name": "Zeros"}, "data_format": "channels_last", "kernel_constraint": null, "use_bias": true, "filters": 256, "activity_regularizer": null, "kernel_regularizer": null, "activation": "linear", "trainable": true, "bias_regularizer": null, "padding": "same", "dilation_rate": [1, 1], "name": "res4b_branch2b", "bias_constraint": null, "kernel_size": [3, 3], "kernel_initializer": {"config": {"seed": null, "scale": 1.0, "mode": "fan_avg", "distribution": "uniform"}, "class_name": "VarianceScaling"}}, "inbound_nodes": [[["activation_26", 0, 0, {}]]], "class_name": "Conv2D", "name": "res4b_branch2b"}, {"config": {"moving_mean_initializer": {"config": {}, "class_name": "Zeros"}, "momentum": 0.99, "scale": true, "epsilon": 0.001, "gamma_initializer": {"config": {}, "class_name": "Ones"}, "beta_initializer": {"config": {}, "class_name": "Zeros"}, "beta_constraint": null, "trainable": true, "axis": 3, "gamma_regularizer": null, "gamma_constraint": null, "name": "bn4b_branch2b", "center": true, "beta_regularizer": null, "moving_variance_initializer": {"config": {}, "class_name": "Ones"}}, "inbound_nodes": [[["res4b_branch2b", 0, 0, {}]]], "class_name": "BatchNormalization", "name": "bn4b_branch2b"}, {"config": {"trainable": true, "activation": "relu", "name": "activation_27"}, "inbound_nodes": [[["bn4b_branch2b", 0, 0, {}]]], "class_name": "Activation", "name": "activation_27"}, {"config": {"strides": [1, 1], "bias_initializer": {"config": {}, "class_name": "Zeros"}, "data_format": "channels_last", "kernel_constraint": null, "use_bias": true, "filters": 1024, "activity_regularizer": null, "kernel_regularizer": null, "activation": "linear", "trainable": true, "bias_regularizer": null, "padding": "valid", "dilation_rate": [1, 1], "name": "res4b_branch2c", "bias_constraint": null, "kernel_size": [1, 1], "kernel_initializer": {"config": {"seed": null, "scale": 1.0, "mode": "fan_avg", "distribution": "uniform"}, "class_name": "VarianceScaling"}}, "inbound_nodes": [[["activation_27", 0, 0, {}]]], "class_name": "Conv2D", "name": "res4b_branch2c"}, {"config": {"moving_mean_initializer": {"config": {}, "class_name": "Zeros"}, "momentum": 0.99, "scale": true, "epsilon": 0.001, "gamma_initializer": {"config": {}, "class_name": "Ones"}, "beta_initializer": {"config": {}, "class_name": "Zeros"}, "beta_constraint": null, "trainable": true, "axis": 3, "gamma_regularizer": null, "gamma_constraint": null, "name": "bn4b_branch2c", "center": true, "beta_regularizer": null, "moving_variance_initializer": {"config": {}, "class_name": "Ones"}}, "inbound_nodes": [[["res4b_branch2c", 0, 0, {}]]], "class_name": "BatchNormalization", "name": "bn4b_branch2c"}, {"config": {"trainable": true, "name": "add_9"}, "inbound_nodes": [[["bn4b_branch2c", 0, 0, {}], ["activation_25", 0, 0, {}]]], "class_name": "Add", "name": "add_9"}, {"config": {"trainable": true, "activation": "relu", "name": "activation_28"}, "inbound_nodes": [[["add_9", 0, 0, {}]]], "class_name": "Activation", "name": "activation_28"}, {"config": {"strides": [1, 1], "bias_initializer": {"config": {}, "class_name": "Zeros"}, "data_format": "channels_last", "kernel_constraint": null, "use_bias": true, "filters": 256, "activity_regularizer": null, "kernel_regularizer": null, "activation": "linear", "trainable": true, "bias_regularizer": null, "padding": "valid", "dilation_rate": [1, 1], "name": "res4c_branch2a", "bias_constraint": null, "kernel_size": [1, 1], "kernel_initializer": {"config": {"seed": null, "scale": 1.0, "mode": "fan_avg", "distribution": "uniform"}, "class_name": "VarianceScaling"}}, "inbound_nodes": [[["activation_28", 0, 0, {}]]], "class_name": "Conv2D", "name": "res4c_branch2a"}, {"config": {"moving_mean_initializer": {"config": {}, "class_name": "Zeros"}, "momentum": 0.99, "scale": true, "epsilon": 0.001, "gamma_initializer": {"config": {}, "class_name": "Ones"}, "beta_initializer": {"config": {}, "class_name": "Zeros"}, "beta_constraint": null, "trainable": true, "axis": 3, "gamma_regularizer": null, "gamma_constraint": null, "name": "bn4c_branch2a", "center": true, "beta_regularizer": null, "moving_variance_initializer": {"config": {}, "class_name": "Ones"}}, "inbound_nodes": [[["res4c_branch2a", 0, 0, {}]]], "class_name": "BatchNormalization", "name": "bn4c_branch2a"}, {"config": {"trainable": true, "activation": "relu", "name": "activation_29"}, "inbound_nodes": [[["bn4c_branch2a", 0, 0, {}]]], "class_name": "Activation", "name": "activation_29"}, {"config": {"strides": [1, 1], "bias_initializer": {"config": {}, "class_name": "Zeros"}, "data_format": "channels_last", "kernel_constraint": null, "use_bias": true, "filters": 256, "activity_regularizer": null, "kernel_regularizer": null, "activation": "linear", "trainable": true, "bias_regularizer": null, "padding": "same", "dilation_rate": [1, 1], "name": "res4c_branch2b", "bias_constraint": null, "kernel_size": [3, 3], "kernel_initializer": {"config": {"seed": null, "scale": 1.0, "mode": "fan_avg", "distribution": "uniform"}, "class_name": "VarianceScaling"}}, "inbound_nodes": [[["activation_29", 0, 0, {}]]], "class_name": "Conv2D", "name": "res4c_branch2b"}, {"config": {"moving_mean_initializer": {"config": {}, "class_name": "Zeros"}, "momentum": 0.99, "scale": true, "epsilon": 0.001, "gamma_initializer": {"config": {}, "class_name": "Ones"}, "beta_initializer": {"config": {}, "class_name": "Zeros"}, "beta_constraint": null, "trainable": true, "axis": 3, "gamma_regularizer": null, "gamma_constraint": null, "name": "bn4c_branch2b", "center": true, "beta_regularizer": null, "moving_variance_initializer": {"config": {}, "class_name": "Ones"}}, "inbound_nodes": [[["res4c_branch2b", 0, 0, {}]]], "class_name": "BatchNormalization", "name": "bn4c_branch2b"}, {"config": {"trainable": true, "activation": "relu", "name": "activation_30"}, "inbound_nodes": [[["bn4c_branch2b", 0, 0, {}]]], "class_name": "Activation", "name": "activation_30"}, {"config": {"strides": [1, 1], "bias_initializer": {"config": {}, "class_name": "Zeros"}, "data_format": "channels_last", "kernel_constraint": null, "use_bias": true, "filters": 1024, "activity_regularizer": null, "kernel_regularizer": null, "activation": "linear", "trainable": true, "bias_regularizer": null, "padding": "valid", "dilation_rate": [1, 1], "name": "res4c_branch2c", "bias_constraint": null, "kernel_size": [1, 1], "kernel_initializer": {"config": {"seed": null, "scale": 1.0, "mode": "fan_avg", "distribution": "uniform"}, "class_name": "VarianceScaling"}}, "inbound_nodes": [[["activation_30", 0, 0, {}]]], "class_name": "Conv2D", "name": "res4c_branch2c"}, {"config": {"moving_mean_initializer": {"config": {}, "class_name": "Zeros"}, "momentum": 0.99, "scale": true, "epsilon": 0.001, "gamma_initializer": {"config": {}, "class_name": "Ones"}, "beta_initializer": {"config": {}, "class_name": "Zeros"}, "beta_constraint": null, "trainable": true, "axis": 3, "gamma_regularizer": null, "gamma_constraint": null, "name": "bn4c_branch2c", "center": true, "beta_regularizer": null, "moving_variance_initializer": {"config": {}, "class_name": "Ones"}}, "inbound_nodes": [[["res4c_branch2c", 0, 0, {}]]], "class_name": "BatchNormalization", "name": "bn4c_branch2c"}, {"config": {"trainable": true, "name": "add_10"}, "inbound_nodes": [[["bn4c_branch2c", 0, 0, {}], ["activation_28", 0, 0, {}]]], "class_name": "Add", "name": "add_10"}, {"config": {"trainable": true, "activation": "relu", "name": "activation_31"}, "inbound_nodes": [[["add_10", 0, 0, {}]]], "class_name": "Activation", "name": "activation_31"}, {"config": {"strides": [1, 1], "bias_initializer": {"config": {}, "class_name": "Zeros"}, "data_format": "channels_last", "kernel_constraint": null, "use_bias": true, "filters": 256, "activity_regularizer": null, "kernel_regularizer": null, "activation": "linear", "trainable": true, "bias_regularizer": null, "padding": "valid", "dilation_rate": [1, 1], "name": "res4d_branch2a", "bias_constraint": null, "kernel_size": [1, 1], "kernel_initializer": {"config": {"seed": null, "scale": 1.0, "mode": "fan_avg", "distribution": "uniform"}, "class_name": "VarianceScaling"}}, "inbound_nodes": [[["activation_31", 0, 0, {}]]], "class_name": "Conv2D", "name": "res4d_branch2a"}, {"config": {"moving_mean_initializer": {"config": {}, "class_name": "Zeros"}, "momentum": 0.99, "scale": true, "epsilon": 0.001, "gamma_initializer": {"config": {}, "class_name": "Ones"}, "beta_initializer": {"config": {}, "class_name": "Zeros"}, "beta_constraint": null, "trainable": true, "axis": 3, "gamma_regularizer": null, "gamma_constraint": null, "name": "bn4d_branch2a", "center": true, "beta_regularizer": null, "moving_variance_initializer": {"config": {}, "class_name": "Ones"}}, "inbound_nodes": [[["res4d_branch2a", 0, 0, {}]]], "class_name": "BatchNormalization", "name": "bn4d_branch2a"}, {"config": {"trainable": true, "activation": "relu", "name": "activation_32"}, "inbound_nodes": [[["bn4d_branch2a", 0, 0, {}]]], "class_name": "Activation", "name": "activation_32"}, {"config": {"strides": [1, 1], "bias_initializer": {"config": {}, "class_name": "Zeros"}, "data_format": "channels_last", "kernel_constraint": null, "use_bias": true, "filters": 256, "activity_regularizer": null, "kernel_regularizer": null, "activation": "linear", "trainable": true, "bias_regularizer": null, "padding": "same", "dilation_rate": [1, 1], "name": "res4d_branch2b", "bias_constraint": null, "kernel_size": [3, 3], "kernel_initializer": {"config": {"seed": null, "scale": 1.0, "mode": "fan_avg", "distribution": "uniform"}, "class_name": "VarianceScaling"}}, "inbound_nodes": [[["activation_32", 0, 0, {}]]], "class_name": "Conv2D", "name": "res4d_branch2b"}, {"config": {"moving_mean_initializer": {"config": {}, "class_name": "Zeros"}, "momentum": 0.99, "scale": true, "epsilon": 0.001, "gamma_initializer": {"config": {}, "class_name": "Ones"}, "beta_initializer": {"config": {}, "class_name": "Zeros"}, "beta_constraint": null, "trainable": true, "axis": 3, "gamma_regularizer": null, "gamma_constraint": null, "name": "bn4d_branch2b", "center": true, "beta_regularizer": null, "moving_variance_initializer": {"config": {}, "class_name": "Ones"}}, "inbound_nodes": [[["res4d_branch2b", 0, 0, {}]]], "class_name": "BatchNormalization", "name": "bn4d_branch2b"}, {"config": {"trainable": true, "activation": "relu", "name": "activation_33"}, "inbound_nodes": [[["bn4d_branch2b", 0, 0, {}]]], "class_name": "Activation", "name": "activation_33"}, {"config": {"strides": [1, 1], "bias_initializer": {"config": {}, "class_name": "Zeros"}, "data_format": "channels_last", "kernel_constraint": null, "use_bias": true, "filters": 1024, "activity_regularizer": null, "kernel_regularizer": null, "activation": "linear", "trainable": true, "bias_regularizer": null, "padding": "valid", "dilation_rate": [1, 1], "name": "res4d_branch2c", "bias_constraint": null, "kernel_size": [1, 1], "kernel_initializer": {"config": {"seed": null, "scale": 1.0, "mode": "fan_avg", "distribution": "uniform"}, "class_name": "VarianceScaling"}}, "inbound_nodes": [[["activation_33", 0, 0, {}]]], "class_name": "Conv2D", "name": "res4d_branch2c"}, {"config": {"moving_mean_initializer": {"config": {}, "class_name": "Zeros"}, "momentum": 0.99, "scale": true, "epsilon": 0.001, "gamma_initializer": {"config": {}, "class_name": "Ones"}, "beta_initializer": {"config": {}, "class_name": "Zeros"}, "beta_constraint": null, "trainable": true, "axis": 3, "gamma_regularizer": null, "gamma_constraint": null, "name": "bn4d_branch2c", "center": true, "beta_regularizer": null, "moving_variance_initializer": {"config": {}, "class_name": "Ones"}}, "inbound_nodes": [[["res4d_branch2c", 0, 0, {}]]], "class_name": "BatchNormalization", "name": "bn4d_branch2c"}, {"config": {"trainable": true, "name": "add_11"}, "inbound_nodes": [[["bn4d_branch2c", 0, 0, {}], ["activation_31", 0, 0, {}]]], "class_name": "Add", "name": "add_11"}, {"config": {"trainable": true, "activation": "relu", "name": "activation_34"}, "inbound_nodes": [[["add_11", 0, 0, {}]]], "class_name": "Activation", "name": "activation_34"}, {"config": {"strides": [1, 1], "bias_initializer": {"config": {}, "class_name": "Zeros"}, "data_format": "channels_last", "kernel_constraint": null, "use_bias": true, "filters": 256, "activity_regularizer": null, "kernel_regularizer": null, "activation": "linear", "trainable": true, "bias_regularizer": null, "padding": "valid", "dilation_rate": [1, 1], "name": "res4e_branch2a", "bias_constraint": null, "kernel_size": [1, 1], "kernel_initializer": {"config": {"seed": null, "scale": 1.0, "mode": "fan_avg", "distribution": "uniform"}, "class_name": "VarianceScaling"}}, "inbound_nodes": [[["activation_34", 0, 0, {}]]], "class_name": "Conv2D", "name": "res4e_branch2a"}, {"config": {"moving_mean_initializer": {"config": {}, "class_name": "Zeros"}, "momentum": 0.99, "scale": true, "epsilon": 0.001, "gamma_initializer": {"config": {}, "class_name": "Ones"}, "beta_initializer": {"config": {}, "class_name": "Zeros"}, "beta_constraint": null, "trainable": true, "axis": 3, "gamma_regularizer": null, "gamma_constraint": null, "name": "bn4e_branch2a", "center": true, "beta_regularizer": null, "moving_variance_initializer": {"config": {}, "class_name": "Ones"}}, "inbound_nodes": [[["res4e_branch2a", 0, 0, {}]]], "class_name": "BatchNormalization", "name": "bn4e_branch2a"}, {"config": {"trainable": true, "activation": "relu", "name": "activation_35"}, "inbound_nodes": [[["bn4e_branch2a", 0, 0, {}]]], "class_name": "Activation", "name": "activation_35"}, {"config": {"strides": [1, 1], "bias_initializer": {"config": {}, "class_name": "Zeros"}, "data_format": "channels_last", "kernel_constraint": null, "use_bias": true, "filters": 256, "activity_regularizer": null, "kernel_regularizer": null, "activation": "linear", "trainable": true, "bias_regularizer": null, "padding": "same", "dilation_rate": [1, 1], "name": "res4e_branch2b", "bias_constraint": null, "kernel_size": [3, 3], "kernel_initializer": {"config": {"seed": null, "scale": 1.0, "mode": "fan_avg", "distribution": "uniform"}, "class_name": "VarianceScaling"}}, "inbound_nodes": [[["activation_35", 0, 0, {}]]], "class_name": "Conv2D", "name": "res4e_branch2b"}, {"config": {"moving_mean_initializer": {"config": {}, "class_name": "Zeros"}, "momentum": 0.99, "scale": true, "epsilon": 0.001, "gamma_initializer": {"config": {}, "class_name": "Ones"}, "beta_initializer": {"config": {}, "class_name": "Zeros"}, "beta_constraint": null, "trainable": true, "axis": 3, "gamma_regularizer": null, "gamma_constraint": null, "name": "bn4e_branch2b", "center": true, "beta_regularizer": null, "moving_variance_initializer": {"config": {}, "class_name": "Ones"}}, "inbound_nodes": [[["res4e_branch2b", 0, 0, {}]]], "class_name": "BatchNormalization", "name": "bn4e_branch2b"}, {"config": {"trainable": true, "activation": "relu", "name": "activation_36"}, "inbound_nodes": [[["bn4e_branch2b", 0, 0, {}]]], "class_name": "Activation", "name": "activation_36"}, {"config": {"strides": [1, 1], "bias_initializer": {"config": {}, "class_name": "Zeros"}, "data_format": "channels_last", "kernel_constraint": null, "use_bias": true, "filters": 1024, "activity_regularizer": null, "kernel_regularizer": null, "activation": "linear", "trainable": true, "bias_regularizer": null, "padding": "valid", "dilation_rate": [1, 1], "name": "res4e_branch2c", "bias_constraint": null, "kernel_size": [1, 1], "kernel_initializer": {"config": {"seed": null, "scale": 1.0, "mode": "fan_avg", "distribution": "uniform"}, "class_name": "VarianceScaling"}}, "inbound_nodes": [[["activation_36", 0, 0, {}]]], "class_name": "Conv2D", "name": "res4e_branch2c"}, {"config": {"moving_mean_initializer": {"config": {}, "class_name": "Zeros"}, "momentum": 0.99, "scale": true, "epsilon": 0.001, "gamma_initializer": {"config": {}, "class_name": "Ones"}, "beta_initializer": {"config": {}, "class_name": "Zeros"}, "beta_constraint": null, "trainable": true, "axis": 3, "gamma_regularizer": null, "gamma_constraint": null, "name": "bn4e_branch2c", "center": true, "beta_regularizer": null, "moving_variance_initializer": {"config": {}, "class_name": "Ones"}}, "inbound_nodes": [[["res4e_branch2c", 0, 0, {}]]], "class_name": "BatchNormalization", "name": "bn4e_branch2c"}, {"config": {"trainable": true, "name": "add_12"}, "inbound_nodes": [[["bn4e_branch2c", 0, 0, {}], ["activation_34", 0, 0, {}]]], "class_name": "Add", "name": "add_12"}, {"config": {"trainable": true, "activation": "relu", "name": "activation_37"}, "inbound_nodes": [[["add_12", 0, 0, {}]]], "class_name": "Activation", "name": "activation_37"}, {"config": {"strides": [1, 1], "bias_initializer": {"config": {}, "class_name": "Zeros"}, "data_format": "channels_last", "kernel_constraint": null, "use_bias": true, "filters": 256, "activity_regularizer": null, "kernel_regularizer": null, "activation": "linear", "trainable": true, "bias_regularizer": null, "padding": "valid", "dilation_rate": [1, 1], "name": "res4f_branch2a", "bias_constraint": null, "kernel_size": [1, 1], "kernel_initializer": {"config": {"seed": null, "scale": 1.0, "mode": "fan_avg", "distribution": "uniform"}, "class_name": "VarianceScaling"}}, "inbound_nodes": [[["activation_37", 0, 0, {}]]], "class_name": "Conv2D", "name": "res4f_branch2a"}, {"config": {"moving_mean_initializer": {"config": {}, "class_name": "Zeros"}, "momentum": 0.99, "scale": true, "epsilon": 0.001, "gamma_initializer": {"config": {}, "class_name": "Ones"}, "beta_initializer": {"config": {}, "class_name": "Zeros"}, "beta_constraint": null, "trainable": true, "axis": 3, "gamma_regularizer": null, "gamma_constraint": null, "name": "bn4f_branch2a", "center": true, "beta_regularizer": null, "moving_variance_initializer": {"config": {}, "class_name": "Ones"}}, "inbound_nodes": [[["res4f_branch2a", 0, 0, {}]]], "class_name": "BatchNormalization", "name": "bn4f_branch2a"}, {"config": {"trainable": true, "activation": "relu", "name": "activation_38"}, "inbound_nodes": [[["bn4f_branch2a", 0, 0, {}]]], "class_name": "Activation", "name": "activation_38"}, {"config": {"strides": [1, 1], "bias_initializer": {"config": {}, "class_name": "Zeros"}, "data_format": "channels_last", "kernel_constraint": null, "use_bias": true, "filters": 256, "activity_regularizer": null, "kernel_regularizer": null, "activation": "linear", "trainable": true, "bias_regularizer": null, "padding": "same", "dilation_rate": [1, 1], "name": "res4f_branch2b", "bias_constraint": null, "kernel_size": [3, 3], "kernel_initializer": {"config": {"seed": null, "scale": 1.0, "mode": "fan_avg", "distribution": "uniform"}, "class_name": "VarianceScaling"}}, "inbound_nodes": [[["activation_38", 0, 0, {}]]], "class_name": "Conv2D", "name": "res4f_branch2b"}, {"config": {"moving_mean_initializer": {"config": {}, "class_name": "Zeros"}, "momentum": 0.99, "scale": true, "epsilon": 0.001, "gamma_initializer": {"config": {}, "class_name": "Ones"}, "beta_initializer": {"config": {}, "class_name": "Zeros"}, "beta_constraint": null, "trainable": true, "axis": 3, "gamma_regularizer": null, "gamma_constraint": null, "name": "bn4f_branch2b", "center": true, "beta_regularizer": null, "moving_variance_initializer": {"config": {}, "class_name": "Ones"}}, "inbound_nodes": [[["res4f_branch2b", 0, 0, {}]]], "class_name": "BatchNormalization", "name": "bn4f_branch2b"}, {"config": {"trainable": true, "activation": "relu", "name": "activation_39"}, "inbound_nodes": [[["bn4f_branch2b", 0, 0, {}]]], "class_name": "Activation", "name": "activation_39"}, {"config": {"strides": [1, 1], "bias_initializer": {"config": {}, "class_name": "Zeros"}, "data_format": "channels_last", "kernel_constraint": null, "use_bias": true, "filters": 1024, "activity_regularizer": null, "kernel_regularizer": null, "activation": "linear", "trainable": true, "bias_regularizer": null, "padding": "valid", "dilation_rate": [1, 1], "name": "res4f_branch2c", "bias_constraint": null, "kernel_size": [1, 1], "kernel_initializer": {"config": {"seed": null, "scale": 1.0, "mode": "fan_avg", "distribution": "uniform"}, "class_name": "VarianceScaling"}}, "inbound_nodes": [[["activation_39", 0, 0, {}]]], "class_name": "Conv2D", "name": "res4f_branch2c"}, {"config": {"moving_mean_initializer": {"config": {}, "class_name": "Zeros"}, "momentum": 0.99, "scale": true, "epsilon": 0.001, "gamma_initializer": {"config": {}, "class_name": "Ones"}, "beta_initializer": {"config": {}, "class_name": "Zeros"}, "beta_constraint": null, "trainable": true, "axis": 3, "gamma_regularizer": null, "gamma_constraint": null, "name": "bn4f_branch2c", "center": true, "beta_regularizer": null, "moving_variance_initializer": {"config": {}, "class_name": "Ones"}}, "inbound_nodes": [[["res4f_branch2c", 0, 0, {}]]], "class_name": "BatchNormalization", "name": "bn4f_branch2c"}, {"config": {"trainable": true, "name": "add_13"}, "inbound_nodes": [[["bn4f_branch2c", 0, 0, {}], ["activation_37", 0, 0, {}]]], "class_name": "Add", "name": "add_13"}, {"config": {"trainable": true, "activation": "relu", "name": "activation_40"}, "inbound_nodes": [[["add_13", 0, 0, {}]]], "class_name": "Activation", "name": "activation_40"}, {"config": {"strides": [2, 2], "bias_initializer": {"config": {}, "class_name": "Zeros"}, "data_format": "channels_last", "kernel_constraint": null, "use_bias": true, "filters": 512, "activity_regularizer": null, "kernel_regularizer": null, "activation": "linear", "trainable": true, "bias_regularizer": null, "padding": "valid", "dilation_rate": [1, 1], "name": "res5a_branch2a", "bias_constraint": null, "kernel_size": [1, 1], "kernel_initializer": {"config": {"seed": null, "scale": 1.0, "mode": "fan_avg", "distribution": "uniform"}, "class_name": "VarianceScaling"}}, "inbound_nodes": [[["activation_40", 0, 0, {}]]], "class_name": "Conv2D", "name": "res5a_branch2a"}, {"config": {"moving_mean_initializer": {"config": {}, "class_name": "Zeros"}, "momentum": 0.99, "scale": true, "epsilon": 0.001, "gamma_initializer": {"config": {}, "class_name": "Ones"}, "beta_initializer": {"config": {}, "class_name": "Zeros"}, "beta_constraint": null, "trainable": true, "axis": 3, "gamma_regularizer": null, "gamma_constraint": null, "name": "bn5a_branch2a", "center": true, "beta_regularizer": null, "moving_variance_initializer": {"config": {}, "class_name": "Ones"}}, "inbound_nodes": [[["res5a_branch2a", 0, 0, {}]]], "class_name": "BatchNormalization", "name": "bn5a_branch2a"}, {"config": {"trainable": true, "activation": "relu", "name": "activation_41"}, "inbound_nodes": [[["bn5a_branch2a", 0, 0, {}]]], "class_name": "Activation", "name": "activation_41"}, {"config": {"strides": [1, 1], "bias_initializer": {"config": {}, "class_name": "Zeros"}, "data_format": "channels_last", "kernel_constraint": null, "use_bias": true, "filters": 512, "activity_regularizer": null, "kernel_regularizer": null, "activation": "linear", "trainable": true, "bias_regularizer": null, "padding": "same", "dilation_rate": [1, 1], "name": "res5a_branch2b", "bias_constraint": null, "kernel_size": [3, 3], "kernel_initializer": {"config": {"seed": null, "scale": 1.0, "mode": "fan_avg", "distribution": "uniform"}, "class_name": "VarianceScaling"}}, "inbound_nodes": [[["activation_41", 0, 0, {}]]], "class_name": "Conv2D", "name": "res5a_branch2b"}, {"config": {"moving_mean_initializer": {"config": {}, "class_name": "Zeros"}, "momentum": 0.99, "scale": true, "epsilon": 0.001, "gamma_initializer": {"config": {}, "class_name": "Ones"}, "beta_initializer": {"config": {}, "class_name": "Zeros"}, "beta_constraint": null, "trainable": true, "axis": 3, "gamma_regularizer": null, "gamma_constraint": null, "name": "bn5a_branch2b", "center": true, "beta_regularizer": null, "moving_variance_initializer": {"config": {}, "class_name": "Ones"}}, "inbound_nodes": [[["res5a_branch2b", 0, 0, {}]]], "class_name": "BatchNormalization", "name": "bn5a_branch2b"}, {"config": {"trainable": true, "activation": "relu", "name": "activation_42"}, "inbound_nodes": [[["bn5a_branch2b", 0, 0, {}]]], "class_name": "Activation", "name": "activation_42"}, {"config": {"strides": [1, 1], "bias_initializer": {"config": {}, "class_name": "Zeros"}, "data_format": "channels_last", "kernel_constraint": null, "use_bias": true, "filters": 2048, "activity_regularizer": null, "kernel_regularizer": null, "activation": "linear", "trainable": true, "bias_regularizer": null, "padding": "valid", "dilation_rate": [1, 1], "name": "res5a_branch2c", "bias_constraint": null, "kernel_size": [1, 1], "kernel_initializer": {"config": {"seed": null, "scale": 1.0, "mode": "fan_avg", "distribution": "uniform"}, "class_name": "VarianceScaling"}}, "inbound_nodes": [[["activation_42", 0, 0, {}]]], "class_name": "Conv2D", "name": "res5a_branch2c"}, {"config": {"strides": [2, 2], "bias_initializer": {"config": {}, "class_name": "Zeros"}, "data_format": "channels_last", "kernel_constraint": null, "use_bias": true, "filters": 2048, "activity_regularizer": null, "kernel_regularizer": null, "activation": "linear", "trainable": true, "bias_regularizer": null, "padding": "valid", "dilation_rate": [1, 1], "name": "res5a_branch1", "bias_constraint": null, "kernel_size": [1, 1], "kernel_initializer": {"config": {"seed": null, "scale": 1.0, "mode": "fan_avg", "distribution": "uniform"}, "class_name": "VarianceScaling"}}, "inbound_nodes": [[["activation_40", 0, 0, {}]]], "class_name": "Conv2D", "name": "res5a_branch1"}, {"config": {"moving_mean_initializer": {"config": {}, "class_name": "Zeros"}, "momentum": 0.99, "scale": true, "epsilon": 0.001, "gamma_initializer": {"config": {}, "class_name": "Ones"}, "beta_initializer": {"config": {}, "class_name": "Zeros"}, "beta_constraint": null, "trainable": true, "axis": 3, "gamma_regularizer": null, "gamma_constraint": null, "name": "bn5a_branch2c", "center": true, "beta_regularizer": null, "moving_variance_initializer": {"config": {}, "class_name": "Ones"}}, "inbound_nodes": [[["res5a_branch2c", 0, 0, {}]]], "class_name": "BatchNormalization", "name": "bn5a_branch2c"}, {"config": {"moving_mean_initializer": {"config": {}, "class_name": "Zeros"}, "momentum": 0.99, "scale": true, "epsilon": 0.001, "gamma_initializer": {"config": {}, "class_name": "Ones"}, "beta_initializer": {"config": {}, "class_name": "Zeros"}, "beta_constraint": null, "trainable": true, "axis": 3, "gamma_regularizer": null, "gamma_constraint": null, "name": "bn5a_branch1", "center": true, "beta_regularizer": null, "moving_variance_initializer": {"config": {}, "class_name": "Ones"}}, "inbound_nodes": [[["res5a_branch1", 0, 0, {}]]], "class_name": "BatchNormalization", "name": "bn5a_branch1"}, {"config": {"trainable": true, "name": "add_14"}, "inbound_nodes": [[["bn5a_branch2c", 0, 0, {}], ["bn5a_branch1", 0, 0, {}]]], "class_name": "Add", "name": "add_14"}, {"config": {"trainable": true, "activation": "relu", "name": "activation_43"}, "inbound_nodes": [[["add_14", 0, 0, {}]]], "class_name": "Activation", "name": "activation_43"}, {"config": {"strides": [1, 1], "bias_initializer": {"config": {}, "class_name": "Zeros"}, "data_format": "channels_last", "kernel_constraint": null, "use_bias": true, "filters": 512, "activity_regularizer": null, "kernel_regularizer": null, "activation": "linear", "trainable": true, "bias_regularizer": null, "padding": "valid", "dilation_rate": [1, 1], "name": "res5b_branch2a", "bias_constraint": null, "kernel_size": [1, 1], "kernel_initializer": {"config": {"seed": null, "scale": 1.0, "mode": "fan_avg", "distribution": "uniform"}, "class_name": "VarianceScaling"}}, "inbound_nodes": [[["activation_43", 0, 0, {}]]], "class_name": "Conv2D", "name": "res5b_branch2a"}, {"config": {"moving_mean_initializer": {"config": {}, "class_name": "Zeros"}, "momentum": 0.99, "scale": true, "epsilon": 0.001, "gamma_initializer": {"config": {}, "class_name": "Ones"}, "beta_initializer": {"config": {}, "class_name": "Zeros"}, "beta_constraint": null, "trainable": true, "axis": 3, "gamma_regularizer": null, "gamma_constraint": null, "name": "bn5b_branch2a", "center": true, "beta_regularizer": null, "moving_variance_initializer": {"config": {}, "class_name": "Ones"}}, "inbound_nodes": [[["res5b_branch2a", 0, 0, {}]]], "class_name": "BatchNormalization", "name": "bn5b_branch2a"}, {"config": {"trainable": true, "activation": "relu", "name": "activation_44"}, "inbound_nodes": [[["bn5b_branch2a", 0, 0, {}]]], "class_name": "Activation", "name": "activation_44"}, {"config": {"strides": [1, 1], "bias_initializer": {"config": {}, "class_name": "Zeros"}, "data_format": "channels_last", "kernel_constraint": null, "use_bias": true, "filters": 512, "activity_regularizer": null, "kernel_regularizer": null, "activation": "linear", "trainable": true, "bias_regularizer": null, "padding": "same", "dilation_rate": [1, 1], "name": "res5b_branch2b", "bias_constraint": null, "kernel_size": [3, 3], "kernel_initializer": {"config": {"seed": null, "scale": 1.0, "mode": "fan_avg", "distribution": "uniform"}, "class_name": "VarianceScaling"}}, "inbound_nodes": [[["activation_44", 0, 0, {}]]], "class_name": "Conv2D", "name": "res5b_branch2b"}, {"config": {"moving_mean_initializer": {"config": {}, "class_name": "Zeros"}, "momentum": 0.99, "scale": true, "epsilon": 0.001, "gamma_initializer": {"config": {}, "class_name": "Ones"}, "beta_initializer": {"config": {}, "class_name": "Zeros"}, "beta_constraint": null, "trainable": true, "axis": 3, "gamma_regularizer": null, "gamma_constraint": null, "name": "bn5b_branch2b", "center": true, "beta_regularizer": null, "moving_variance_initializer": {"config": {}, "class_name": "Ones"}}, "inbound_nodes": [[["res5b_branch2b", 0, 0, {}]]], "class_name": "BatchNormalization", "name": "bn5b_branch2b"}, {"config": {"trainable": true, "activation": "relu", "name": "activation_45"}, "inbound_nodes": [[["bn5b_branch2b", 0, 0, {}]]], "class_name": "Activation", "name": "activation_45"}, {"config": {"strides": [1, 1], "bias_initializer": {"config": {}, "class_name": "Zeros"}, "data_format": "channels_last", "kernel_constraint": null, "use_bias": true, "filters": 2048, "activity_regularizer": null, "kernel_regularizer": null, "activation": "linear", "trainable": true, "bias_regularizer": null, "padding": "valid", "dilation_rate": [1, 1], "name": "res5b_branch2c", "bias_constraint": null, "kernel_size": [1, 1], "kernel_initializer": {"config": {"seed": null, "scale": 1.0, "mode": "fan_avg", "distribution": "uniform"}, "class_name": "VarianceScaling"}}, "inbound_nodes": [[["activation_45", 0, 0, {}]]], "class_name": "Conv2D", "name": "res5b_branch2c"}, {"config": {"moving_mean_initializer": {"config": {}, "class_name": "Zeros"}, "momentum": 0.99, "scale": true, "epsilon": 0.001, "gamma_initializer": {"config": {}, "class_name": "Ones"}, "beta_initializer": {"config": {}, "class_name": "Zeros"}, "beta_constraint": null, "trainable": true, "axis": 3, "gamma_regularizer": null, "gamma_constraint": null, "name": "bn5b_branch2c", "center": true, "beta_regularizer": null, "moving_variance_initializer": {"config": {}, "class_name": "Ones"}}, "inbound_nodes": [[["res5b_branch2c", 0, 0, {}]]], "class_name": "BatchNormalization", "name": "bn5b_branch2c"}, {"config": {"trainable": true, "name": "add_15"}, "inbound_nodes": [[["bn5b_branch2c", 0, 0, {}], ["activation_43", 0, 0, {}]]], "class_name": "Add", "name": "add_15"}, {"config": {"trainable": true, "activation": "relu", "name": "activation_46"}, "inbound_nodes": [[["add_15", 0, 0, {}]]], "class_name": "Activation", "name": "activation_46"}, {"config": {"strides": [1, 1], "bias_initializer": {"config": {}, "class_name": "Zeros"}, "data_format": "channels_last", "kernel_constraint": null, "use_bias": true, "filters": 512, "activity_regularizer": null, "kernel_regularizer": null, "activation": "linear", "trainable": true, "bias_regularizer": null, "padding": "valid", "dilation_rate": [1, 1], "name": "res5c_branch2a", "bias_constraint": null, "kernel_size": [1, 1], "kernel_initializer": {"config": {"seed": null, "scale": 1.0, "mode": "fan_avg", "distribution": "uniform"}, "class_name": "VarianceScaling"}}, "inbound_nodes": [[["activation_46", 0, 0, {}]]], "class_name": "Conv2D", "name": "res5c_branch2a"}, {"config": {"moving_mean_initializer": {"config": {}, "class_name": "Zeros"}, "momentum": 0.99, "scale": true, "epsilon": 0.001, "gamma_initializer": {"config": {}, "class_name": "Ones"}, "beta_initializer": {"config": {}, "class_name": "Zeros"}, "beta_constraint": null, "trainable": true, "axis": 3, "gamma_regularizer": null, "gamma_constraint": null, "name": "bn5c_branch2a", "center": true, "beta_regularizer": null, "moving_variance_initializer": {"config": {}, "class_name": "Ones"}}, "inbound_nodes": [[["res5c_branch2a", 0, 0, {}]]], "class_name": "BatchNormalization", "name": "bn5c_branch2a"}, {"config": {"trainable": true, "activation": "relu", "name": "activation_47"}, "inbound_nodes": [[["bn5c_branch2a", 0, 0, {}]]], "class_name": "Activation", "name": "activation_47"}, {"config": {"strides": [1, 1], "bias_initializer": {"config": {}, "class_name": "Zeros"}, "data_format": "channels_last", "kernel_constraint": null, "use_bias": true, "filters": 512, "activity_regularizer": null, "kernel_regularizer": null, "activation": "linear", "trainable": true, "bias_regularizer": null, "padding": "same", "dilation_rate": [1, 1], "name": "res5c_branch2b", "bias_constraint": null, "kernel_size": [3, 3], "kernel_initializer": {"config": {"seed": null, "scale": 1.0, "mode": "fan_avg", "distribution": "uniform"}, "class_name": "VarianceScaling"}}, "inbound_nodes": [[["activation_47", 0, 0, {}]]], "class_name": "Conv2D", "name": "res5c_branch2b"}, {"config": {"moving_mean_initializer": {"config": {}, "class_name": "Zeros"}, "momentum": 0.99, "scale": true, "epsilon": 0.001, "gamma_initializer": {"config": {}, "class_name": "Ones"}, "beta_initializer": {"config": {}, "class_name": "Zeros"}, "beta_constraint": null, "trainable": true, "axis": 3, "gamma_regularizer": null, "gamma_constraint": null, "name": "bn5c_branch2b", "center": true, "beta_regularizer": null, "moving_variance_initializer": {"config": {}, "class_name": "Ones"}}, "inbound_nodes": [[["res5c_branch2b", 0, 0, {}]]], "class_name": "BatchNormalization", "name": "bn5c_branch2b"}, {"config": {"trainable": true, "activation": "relu", "name": "activation_48"}, "inbound_nodes": [[["bn5c_branch2b", 0, 0, {}]]], "class_name": "Activation", "name": "activation_48"}, {"config": {"strides": [1, 1], "bias_initializer": {"config": {}, "class_name": "Zeros"}, "data_format": "channels_last", "kernel_constraint": null, "use_bias": true, "filters": 2048, "activity_regularizer": null, "kernel_regularizer": null, "activation": "linear", "trainable": true, "bias_regularizer": null, "padding": "valid", "dilation_rate": [1, 1], "name": "res5c_branch2c", "bias_constraint": null, "kernel_size": [1, 1], "kernel_initializer": {"config": {"seed": null, "scale": 1.0, "mode": "fan_avg", "distribution": "uniform"}, "class_name": "VarianceScaling"}}, "inbound_nodes": [[["activation_48", 0, 0, {}]]], "class_name": "Conv2D", "name": "res5c_branch2c"}, {"config": {"moving_mean_initializer": {"config": {}, "class_name": "Zeros"}, "momentum": 0.99, "scale": true, "epsilon": 0.001, "gamma_initializer": {"config": {}, "class_name": "Ones"}, "beta_initializer": {"config": {}, "class_name": "Zeros"}, "beta_constraint": null, "trainable": true, "axis": 3, "gamma_regularizer": null, "gamma_constraint": null, "name": "bn5c_branch2c", "center": true, "beta_regularizer": null, "moving_variance_initializer": {"config": {}, "class_name": "Ones"}}, "inbound_nodes": [[["res5c_branch2c", 0, 0, {}]]], "class_name": "BatchNormalization", "name": "bn5c_branch2c"}, {"config": {"trainable": true, "name": "add_16"}, "inbound_nodes": [[["bn5c_branch2c", 0, 0, {}], ["activation_46", 0, 0, {}]]], "class_name": "Add", "name": "add_16"}, {"config": {"trainable": true, "activation": "relu", "name": "activation_49"}, "inbound_nodes": [[["add_16", 0, 0, {}]]], "class_name": "Activation", "name": "activation_49"}, {"config": {"trainable": true, "strides": [7, 7], "padding": "valid", "name": "avg_pool", "pool_size": [7, 7], "data_format": "channels_last"}, "inbound_nodes": [[["activation_49", 0, 0, {}]]], "class_name": "AveragePooling2D", "name": "avg_pool"}, {"config": {"trainable": true, "name": "flatten_1"}, "inbound_nodes": [[["avg_pool", 0, 0, {}]]], "class_name": "Flatten", "name": "flatten_1"}, {"config": {"trainable": true, "rate": 0.3, "name": "dropout_1"}, "inbound_nodes": [[["flatten_1", 0, 0, {}]]], "class_name": "Dropout", "name": "dropout_1"}, {"config": {"bias_initializer": {"config": {}, "class_name": "Zeros"}, "kernel_constraint": null, "use_bias": true, "activity_regularizer": null, "kernel_regularizer": null, "activation": "sigmoid", "trainable": true, "bias_regularizer": null, "units": 8, "name": "dense_1", "bias_constraint": null, "kernel_initializer": {"config": {"seed": null, "scale": 1.0, "mode": "fan_avg", "distribution": "uniform"}, "class_name": "VarianceScaling"}}, "inbound_nodes": [[["dropout_1", 0, 0, {}]]], "class_name": "Dense", "name": "dense_1"}], "output_layers": [["dense_1", 0, 0]]}, "keras_version": "2.0.8", "class_name": "Model"}